…
coco_weights: None
loss_config: multibox
pos_neg_ratio: 3
mode: test
use_gpu: True
max_per_image: 50
score_threshold: 0.01
nms_threshold: 0.5
iou_threshold: 0.5
voc_config: 0712
voc_data_path: ../../Datasets/PascalVOC/
use_07_metric: True
coco_year: 2017
coco_data_path: ../../Datasets/Coco/
bdd_version: 100k
bdd_data_path: ../../Datasets/bdd100k/
cityscapes_data_path: ../../Datasets/Cityscapes/
model_save_path: ./weights
model_test_path: ./tests
model_eval_path: ./eval
loss_log_step: 1
model_save_step: 5
-------------- End ----------------
SSD(
  (base): ModuleList(
    (0): Conv2d(3, 64, kernel_size=(3, 3), stride=(1, 1), padding=(1, 1))
    (1): ReLU(inplace=True)
    (2): Conv2d(64, 64, kernel_size=(3, 3), stride=(1, 1), padding=(1, 1))
    (3): ReLU(inplace=True)
    (4): MaxPool2d(kernel_size=2, stride=2, padding=0, dilation=1, ceil_mode=False)
    (5): Conv2d(64, 128, kernel_size=(3, 3), stride=(1, 1), padding=(1, 1))
    (6): ReLU(inplace=True)
    (7): Conv2d(128, 128, kernel_size=(3, 3), stride=(1, 1), padding=(1, 1))
    (8): ReLU(inplace=True)
    (9): MaxPool2d(kernel_size=2, stride=2, padding=0, dilation=1, ceil_mode=False)
    (10): Conv2d(128, 256, kernel_size=(3, 3), stride=(1, 1), padding=(1, 1))
    (11): ReLU(inplace=True)
    (12): Conv2d(256, 256, kernel_size=(3, 3), stride=(1, 1), padding=(1, 1))
    (13): ReLU(inplace=True)
    (14): Conv2d(256, 256, kernel_size=(3, 3), stride=(1, 1), padding=(1, 1))
    (15): ReLU(inplace=True)
    (16): MaxPool2d(kernel_size=2, stride=2, padding=0, dilation=1, ceil_mode=True)
    (17): Conv2d(256, 512, kernel_size=(3, 3), stride=(1, 1), padding=(1, 1))
    (18): ReLU(inplace=True)
    (19): Conv2d(512, 512, kernel_size=(3, 3), stride=(1, 1), padding=(1, 1))
    (20): ReLU(inplace=True)
    (21): Conv2d(512, 512, kernel_size=(3, 3), stride=(1, 1), padding=(1, 1))
    (22): ReLU(inplace=True)
    (23): MaxPool2d(kernel_size=2, stride=2, padding=0, dilation=1, ceil_mode=False)
    (24): Conv2d(512, 512, kernel_size=(3, 3), stride=(1, 1), padding=(1, 1))
    (25): ReLU(inplace=True)
    (26): Conv2d(512, 512, kernel_size=(3, 3), stride=(1, 1), padding=(1, 1))
    (27): ReLU(inplace=True)
    (28): Conv2d(512, 512, kernel_size=(3, 3), stride=(1, 1), padding=(1, 1))
    (29): ReLU(inplace=True)
    (30): MaxPool2d(kernel_size=3, stride=1, padding=1, dilation=1, ceil_mode=False)
    (31): Conv2d(512, 1024, kernel_size=(3, 3), stride=(1, 1), padding=(6, 6), dilation=(6, 6))
    (32): ReLU(inplace=True)
    (33): Conv2d(1024, 1024, kernel_size=(1, 1), stride=(1, 1))
    (34): ReLU(inplace=True)
  )
  (L2Norm): L2Norm()
  (extras): ModuleList(
    (0): Conv2d(1024, 256, kernel_size=(1, 1), stride=(1, 1))
    (1): Conv2d(256, 512, kernel_size=(3, 3), stride=(2, 2), padding=(1, 1))
    (2): Conv2d(512, 128, kernel_size=(1, 1), stride=(1, 1))
    (3): Conv2d(128, 256, kernel_size=(3, 3), stride=(2, 2), padding=(1, 1))
    (4): Conv2d(256, 128, kernel_size=(1, 1), stride=(1, 1))
    (5): Conv2d(128, 256, kernel_size=(3, 3), stride=(1, 1))
    (6): Conv2d(256, 128, kernel_size=(1, 1), stride=(1, 1))
    (7): Conv2d(128, 256, kernel_size=(3, 3), stride=(1, 1))
  )
  (class_head): ModuleList(
    (0): Conv2d(512, 112, kernel_size=(3, 3), stride=(1, 1), padding=(1, 1))
    (1): Conv2d(1024, 168, kernel_size=(3, 3), stride=(1, 1), padding=(1, 1))
    (2): Conv2d(512, 168, kernel_size=(3, 3), stride=(1, 1), padding=(1, 1))
    (3): Conv2d(256, 168, kernel_size=(3, 3), stride=(1, 1), padding=(1, 1))
    (4-5): 2 x Conv2d(256, 112, kernel_size=(3, 3), stride=(1, 1), padding=(1, 1))
  )
  (loc_head): ModuleList(
    (0): Conv2d(512, 16, kernel_size=(3, 3), stride=(1, 1), padding=(1, 1))
    (1): Conv2d(1024, 24, kernel_size=(3, 3), stride=(1, 1), padding=(1, 1))
    (2): Conv2d(512, 24, kernel_size=(3, 3), stride=(1, 1), padding=(1, 1))
    (3): Conv2d(256, 24, kernel_size=(3, 3), stride=(1, 1), padding=(1, 1))
    (4-5): 2 x Conv2d(256, 16, kernel_size=(3, 3), stride=(1, 1), padding=(1, 1))
  )
  (softmax): Softmax(dim=-1)
)
The number of parameters: 27221120
loaded trained model SSD weights/20
------------ Options -------------
input_channels: 3
class_count: 28
dataset: wildfsl
new_size: 300
means: (104, 117, 123)
anchor_config: SSD-300
…
